p1_navigation/checkpoint.pth (torch_old, 62657 bytes, 8 tensors)

fc1.weight f4 [128, 37]
0.2202492 -0.16770902 -0.08165101 -0.0074055605 -0.65438336 0.0776408 -0.009872231 0.12199882
-0.002187464 0.0028415874 -0.027636653 0.024754131 0.030018033 0.06665345 -0.0106008155 -0.024283519
-0.031605788 0.089244545 0.095456764 0.01968176 -0.21901879 0.015636344 0.07118899 -0.24136741
-0.19229625 0.009484004 0.06265931 0.17860194 -0.224787 0.2554611 0.13172267 -0.042648338
0.1320194 -0.2389067 -0.6816344 -0.01700374 -0.028821219 0.08139371 0.09037668 0.051191762
0.1275056 0.005093135 0.091612615 0.18620656 0.07864724 0.056790557 -0.20016193 0.054743517
-0.061277878 0.007485064 -0.020349393 -0.07367653 0.13020638 0.08963028 0.15283367 0.17225145
0.020206386 -0.043084186 0.048993003 0.05377002 0.067093536 0.094566025 0.10386437 0.084439054
0.12508653 0.14405349 0.07125514 0.2686396 -0.6985631 -0.44971135 -0.21808763 -1.8622127
-0.0077310223 8.0904734e-05 0.040667575 -0.041729253 0.15030873 0.13446158 -0.14777498 0.12927888
-0.18887293 -0.117855124 0.04906754 -0.22062205 0.1226612 -0.09246854 -0.10369657 0.064158216
0.008404381 0.11650788 -0.014084466 -0.024909884 0.08727655 0.09930676 0.11148141 -0.33533454
0.06618434 -0.08501503 -0.1217699 0.048520215 0.1345707 -0.06451988 0.05524836 -0.2927468
-0.008488169 -0.2570151 0.123609014 0.23596567 0.6373696 -0.050538335 0.03420595 0.13703041
0.06960692 0.015902994 -0.006137533 -0.034731057 0.27460194 -0.036795918 -0.40319318 -0.27747783
-0.84201145 0.014514909 0.1150807 0.08307481 0.013977639 -0.07815121 -0.037431847 -0.060583394
0.052797362 0.12051268 0.08314671 0.10973162 0.15430361 0.08510431 0.10011164 0.08215231
0.20917407 -0.1063283 -0.08375409 -0.1594942 -0.47638384 -0.020362709 -0.09966464 0.16131166
-0.013327795 0.08753155 -0.01009914 -0.0012887083 0.045338497 0.14126168 -0.1924541 -0.01022379
-0.23171993 -0.0154829 -0.36529663 -0.05589773 -0.40361172 -0.13982268 0.013064281 -0.20591648
-0.29096383 0.22885977 -0.04197041 0.14945818 -0.26707843 -0.03685842 -0.29343987 -0.14006767
-0.26088294 -0.120932214 -0.06666899 0.008362116 0.11890258 -0.13624455 0.11546338 0.0025045283
0.23208474 -0.021358326 -0.24264407 0.09953006 -0.09418106 -0.05385715 -0.1620643 0.011939812
-0.099782616 0.31014964 -0.5824975 -0.19630247 -0.26249397 -0.97176874 0.09081702 -0.067584
-0.10838678 -0.024754817 0.16037989 -0.16940416 0.007763897 0.08954806 0.25541368 -0.11342913
-0.04646138 -0.047719434 0.20271887 -0.1492189 -0.26595545 -0.07757218 -0.017075589 0.08446717
-0.21014678 0.076939695 0.0117737455 -0.023764351 -0.16898902 0.16614455 -0.16241875 0.023681305
0.1847607 -0.09022665 0.07731864 0.08826146 -0.08196671 0.04644624 -0.3538397 -0.06740818
0.17668416 -0.012030367 -0.24198899 -0.10704019 0.2550393 0.26773104 -0.01628057 -0.5140279
0.04810889 -0.10729164 0.12973706 -0.021393424 -0.26060236 -0.011081327 0.066503845 -0.05403851
-0.2096409 -0.066182464 0.097454414 0.012973103 -0.06758173 -0.1573866 -0.026836626 -0.28818882
0.023463633 0.1668077 0.06963238 -0.060548186 -0.159702 0.119286224 0.18029837 -0.24731897
00000000: 0289 613e eabb 2bbe a538 a7bd 58aa f2bb
00000010: ab85 27bf 2402 9f3d 23bf 21bc 84da f93d
00000020: 8e5b 0fbb ed39 3a3b 4366 e2bc 2dc9 ca3c
00000030: 61e8 f53c 9b81 883d 0baf 2dbc 3bee c6bc
00000040: 1275 01bd d8c5 b63d d67e c33d a43b a13c
00000050: 7646 60be ca17 803c 88cb 913d 0529 77be
00000060: 4fe9 44be cc62 1b3c 8653 803d 6de3 363e
00000070: 902e 66be cccb 823e 4fe2 063e 06b0 2ebd
00000080: 1830 073e f5a3 74be 987f 2ebf 6d4b 8bbc
00000090: 7a1a ecbc bfb1 a63d 6917 b93d 74ae 513d
000000a0: d490 023e 50e4 a63b 659f bb3d efac 3e3e
000000b0: ce11 a13d 379d 683d 40f7 4cbe bd3a 603d
000000c0: 83fe 7abd 4545 f53b c5b3 a6bc b8e3 96bd
000000d0: d254 053e 1590 b73d 6e80 1c3e af62 303e
000000e0: dd87 a53c 0b79 30bd e3ac 483d f43d 5c3d
000000f0: 5668 893d d5ab c13d d8b6 d43d 62ee ac3d
00000100: af16 003e c282 133e 37ee 913d 218b 893e
00000110: 08d5 32bf 9140 e6be 5d52 5fbe fc5c eebf
00000120: 8454 fdbb 66ab a938 0b93 263d 4bec 2abd
00000130: 88ea 193e 4cb0 093e 5352 17be af61 043e
00000140: e867 41be 075e f1bd 0bfb 483d bfea 61be
00000150: cc35 fb3d 2560 bdbd de5e d4bd 6265 833d
00000160: 87b2 093c af9b ee3d 88c2 66bc d00f ccbc
00000170: 0cbe b23d 5861 cb3d 5e50 e43d f8b0 abbe
00000180: a88b 873d 5c1c aebd 7f62 f9bd 22bd 463d
00000190: e7cc 093e 0023 84bd 1b4c 623d e9e2 95be
000001a0: f611 0bbc 7c97 83be b926 fd3d fca0 713e
000001b0: a72a 233f 4901 4fbd 8a1b 0c3d b351 0c3e
000001c0: 138e 8e3d ff46 823c 5c1d c9bb 2742 0ebd
000001d0: a098 8c3e 51b7 16bd 566f cebe 9311 8ebe
000001e0: 108e 57bf f1cf 6d3c 6eaf eb3d 2023 aa3d
000001f0: 7802 653c be0d a0bd 2352 19bd 4b26 78bd
00000200: 0c42 583d 5acf f63d d348 aa3d f9ba e03d
00000210: c401 1e3e 2b4b ae3d 5507 cd3d 783f a83d
00000220: ba31 563e a7c2 d9bd 4487 abbd 7352 23be
00000230: 95e8 f3be b2cf a6bc fa1c ccbd e22e 253e
00000240: d35c 5abc be43 b33d dd76 25bc e0e9 a8ba
00000250: dcb4 393d e7a6 103e b012 45be af81 27bc
00000260: fd47 6dbe fdab 7dbc 2908 bbbe 05f5 64bd
00000270: 32a6 cebe ad2d 0fbe 910b 563c c5db 52be
00000280: 36f9 94be 375a 6a3e 2ae9 2bbd 910b 193e
00000290: 81be 88be dbf8 16bd c03d 96be e66d 0fbe
000002a0: 7392 85be 4fab f7bd c089 88bd 4201 093c
000002b0: 3283 f33d b183 0bbe 1178 ec3d 0323 243b
000002c0: 9fa7 6d3e a8f7 aebc b077 78be 6bd6 cb3d
000002d0: 00e2 c0bd 5199 5cbd 2ff4 25be 349f 433c
000002e0: d45a ccbd efcb 9e3e 8e1e 15bf 8403 49be
000002f0: 9c65 86be d6c5 78bf 46fe b93d 7b69 8abd
00000300: e3f9 ddbd 9dca cabc a03a 243e 4978 2dbe
00000310: 4a68 fe3b f964 b73d 95c5 823e 884d e8bd
00000320: 4a4e 3ebd 7475 43bd 8995 4f3e d7cc 18be
00000330: 502b 88be 2ade 9ebd 1be2 8bbc 20fd ac3d
00000340: b830 57be 8f92 9d3d abe6 403c 75ad c2bc
00000350: 750b 2dbe cc21 2a3e 1a51 26be 4cff c13c
00000360: e931 3d3e c0c8 b8bd 3c59 9e3d 6dc2 b43d
00000370: 2ade a7bd 6a3e 3e3d 7a2a b5be 4d0d 8abd
00000380: b1ec 343e 041b 45bc f6cb 77be e337 dbbd
00000390: 8394 823e 0b14 893e d45e 85bc 5597 03bf
000003a0: d40d 453d b8bb dbbd cbd9 043e 4341 afbc
000003b0: ac6d 85be 748e 35bc 2b33 883d 7c57 5dbd
000003c0: 1bac 56be ac8a 87bd 2e96 c73d 238d 543c
000003d0: 4a68 8abd f429 21be 7cd8 dbbc 7c8d 93be
000003e0: ce36 c03c a3cf 2a3e 6c9b 8e3d 6001 78bd
000003f0: ec88 23be 564c f43d 23a0 383e 2f41 7dbe

fc1.bias f4 [128]
0.12763853 -0.0034907628 -0.10817193 0.0757327 -0.14384168 -0.17016484 -0.2035561 0.07075668
-0.13055862 0.11634808 -0.14424951 0.06680898 -0.14264913 0.09359786 0.15817097 0.09277817
-0.090197615 -0.091411 -0.21119003 -0.088762306 0.025982061 0.15568039 -0.13479246 0.10216593
-0.04984462 -0.10170931 -0.12394258 0.05847268 0.0026615215 0.09106023 0.11398018 0.15294653
0.07237299 -0.063667014 0.090879664 0.13341348 0.07432323 0.07716662 -0.0067428397 0.06674924
-0.10761529 0.01872275 -0.03523477 -0.19990106 -0.08920918 -0.13039242 0.06577328 0.11230968
-0.038361672 0.02823431 -0.08020184 -0.09974049 0.0555375 0.07226745 -0.18510187 0.1271334
0.029684896 -0.21884736 3.1114996e-05 -0.09288934 -0.12109454 0.051495317 -0.1490358 -0.024289543
0.13289931 0.06808367 0.049775124 -0.13433707 -0.09936145 0.052983005 -0.04076678 0.126882
0.119132124 0.08466869 -0.018771358 -0.1829483 -0.06509077 -0.0065518636 -0.11959718 0.012015508
0.012966011 -0.19830945 -0.008241716 -0.094868824 0.084709525 -0.12943907 0.08071055 -0.063507855
-0.2193325 0.116819054 -0.16755687 0.03777969 -0.0070776646 0.026226813 0.08479616 0.1170556
0.12248097 0.104714 -0.073664665 -0.06505728 -0.128064 0.02258129 -0.01980236 0.070781164
0.08822679 -0.03958431 -0.08370481 0.112554245 -0.030927906 -0.17689364 -0.09048922 -0.22525583
0.07210871 0.041227393 0.09343554 0.0688647 -0.06853595 0.29906777 -0.0076166866 0.00053243205
0.02869389 -0.16102386 -0.025079982 -0.05022045 -0.057192262 0.011602999 -0.10340994 0.07656536
00000000: adb3 023e 48c5 64bb 3f89 ddbd bf19 9b3d
00000010: 3c4b 13be b13f 2ebe 0371 50be e1e8 903d
00000020: 29b1 05be e747 ee3d 25b6 13be 26d3 883d
00000030: 9d12 12be 3cb0 bf3d 92f7 213e 7b02 be3d
00000040: 87b9 b8bd b135 bbbd 3342 58be 03c9 b5bd
00000050: 55d8 d43c ae6a 1f3e 0907 0abe 5f3c d13d
00000060: df29 4cbd f94c d0bd 9bd5 fdbd 0d81 6f3d
00000070: ec6c 2e3b c97d ba3d 716e e93d 049e 1c3e
00000080: 4a38 943d da63 82bd 1e1f ba3d 8b9d 083e
00000090: c736 983d 8809 9e3d 0af3 dcbb d3b3 883d
000000a0: 6865 dcbd 7460 993c 5652 10bd ddb2 4cbe
000000b0: 4db3 b6bd 9785 05be 24b4 863d 9e02 e63d
000000c0: 2121 1dbd a44b e73c dd40 a4bd be44 ccbd
000000d0: 4a7b 633d f500 943d 588b 3dbe 422f 023e
000000e0: bd2d f33c 8619 60be 7981 0238 c43c bebd
000000f0: 6a00 f8bd c1ec 523d d79c 18be ddfa c6bc
00000100: c216 083e 746f 8b3d 00e1 4b3d a88f 09be
00000110: 047e cbbd b504 593d 11fb 26bd 5bed 013e
00000120: 8bfb f33d c766 ad3d 64c6 99bc cd56 3bbe
00000130: 4f4e 85bd 04b1 d6bb 5eef f4bd b1dc 443c
00000140: 646f 543c a211 4bbe 4308 07bc 964a c2bd
00000150: 307c ad3d ad8b 04be 934b a53d 6810 82bd
00000160: b398 60be d43e ef3d 0794 2bbe e0be 1a3d
00000170: c1eb e7bb 9dd9 d63c 9ca9 ad3d d9ba ef3d
00000180: 4ed7 fa3d 4b74 d63d 80dd 96bd c03c 85bd
00000190: 3623 03be 66fc b83c 8f38 a2bc b7f5 903d
000001a0: 3fb0 b43d 2823 22bd 6d6d abbd d782 e63d
000001b0: 855c fdbc 9b23 35be 6a52 b9bd 77a9 66be
000001c0: bbad 933d 0ede 283d 225b bf3d f008 8d3d
000001d0: 935c 8cbd 691f 993e 6695 f9bb e992 0b3a
000001e0: 730f eb3c 70e3 24be 8974 cdbc f5b3 4dbd
000001f0: 6f42 6abd 811a 3e3c 97c8 d3bd 4dce 9c3d

fc2.weight f4 [64, 128]
-0.094785 -0.0089035295 -0.18429105 -0.032790683 0.15882932 -0.22870068 -0.31927267 0.08274582
-0.191332 -0.12362586 0.03912138 0.055202615 -0.008339206 -0.13678657 0.10158249 0.07439513
-0.068295725 -0.14285338 -0.15100594 -0.16463687 -0.36659533 -0.12000277 -0.2705268 -0.108698174
-0.075582154 -0.21124086 0.008995108 -0.2626148 -0.106178276 -0.24273609 0.05035828 -0.10684656
-0.21803696 0.008241591 -0.08306637 -0.084876515 -0.01670228 0.0042495886 -0.014577203 0.021809623
-0.31976673 -0.031732578 0.0125829885 -0.02761522 0.11288657 0.020802522 -0.058557354 0.12149683
0.09897002 -0.060380653 -0.2211833 -0.17280756 -0.38309634 -0.18784414 -0.10133577 -0.012327909
0.07765069 -0.02020282 0.03914465 0.1572218 0.05290213 0.000747747 -0.06787204 0.033076774
-0.075732715 0.0055674594 -0.18490405 -0.2903761 -0.17285828 -0.041764524 -0.005025667 -0.13910912
-0.24390598 0.0660851 -0.27474627 -0.30973724 -0.17317718 0.05030471 0.08354329 0.017602408
-0.15722412 0.0040283436 -0.12393549 -0.21383066 0.02822687 -0.18381068 -0.09148031 0.080856904
0.004695658 0.009411941 -0.2714116 0.10326771 -0.15958828 -0.110335745 -0.27071851 -0.30239224
-0.0014628684 -0.11621019 -0.0592536 -0.002491989 0.011342013 0.17138079 -0.20892012 -0.22530073
-0.1975813 0.04141906 0.0069387276 0.0036191368 -0.23700617 -0.13906384 -0.0024905186 0.036284976
0.05381807 -0.28431758 -0.16267435 -0.04812857 0.09941987 0.072090216 -0.030858934 -0.053899977
-0.13916938 -0.23228146 -0.24676004 -0.028537547 -0.12705044 0.070407465 -0.106697306 -0.14759935
-0.05553409 -0.15049289 -0.1580754 -0.034048792 0.2225089 -0.054261435 0.20805787 0.08250674
0.05914382 0.050014075 0.14209276 -0.0042069275 -0.16743565 -0.052810762 0.09166865 0.16563936
0.10879503 0.013957734 0.31702515 0.00027923964 0.070039965 -0.43006516 0.1017718 0.09069977
-0.11939831 -0.063386746 0.06233855 0.08740742 0.14173076 -0.11629942 -0.022567373 -0.0015671374
0.13092215 -0.010926356 0.096971504 0.102793716 -0.23936138 -0.08213675 -0.0927182 -0.016256915
0.17137039 0.04689643 -0.03156045 -0.014930039 0.21941072 0.08921608 0.11827327 -0.0065021636
-0.03538102 0.076606415 -0.12128381 -0.20431548 -0.066001184 0.028920531 -0.06415354 -0.043572187
-0.19035503 -0.04259181 -0.14741883 -0.06588868 -0.050043594 -0.046491444 -0.09767043 0.15066257
0.12628944 -0.09781052 -0.3034829 0.07836574 -0.18221816 0.057499815 -0.019240687 -0.21624845
-0.09722534 -0.19359902 -0.21213564 0.24757761 -0.021650035 0.018241232 0.2757773 0.16738552
0.11160395 -0.20699221 0.20157564 -0.036341723 -0.11125717 -0.12578435 -0.010542686 -0.11695157
0.1137467 0.030430382 -0.021045033 -0.26545283 -0.20727797 0.056457408 -0.121333085 0.08229538
0.17660639 0.14991273 0.009678593 0.1260279 0.020810489 0.25853315 -0.116299905 0.09494952
-0.092835695 0.04407011 0.10147585 0.008992441 0.23539789 0.106472865 -0.12006151 0.007165055
-0.12467252 0.061527163 0.08390645 0.08671305 0.1782982 -0.14191365 0.06512067 -0.00090444786
-0.08061995 -0.18975565 0.011008833 -0.05370376 -0.028721925 -0.063820675 -0.13717882 -0.011468471
00000000: a31e c2bd 1ce0 11bc cbb6 3cbe 864f 06bd
00000010: 27a4 223e 8330 6abe b577 a3be a476 a93d
00000020: 89ec 43be 8e2f fdbd bd3d 203d 231c 623d
00000030: 2aa1 08bc c711 0cbe 7b0a d03d 795c 983d
00000040: a1de 8bbd 2848 12be 4da1 1abe 9196 28be
00000050: 62b2 bbbe 03c4 f5bd 7d82 8abe 269d debd
00000060: d1ca 9abd 864f 58be 3860 133c 7275 86be
00000070: ff73 d9bd cf8f 78be 7c44 4e3d 5fd2 dabd
00000080: 1545 5fbe bd07 073c b31e aabd bdd3 adbd
00000090: 38d3 88bc 2240 8b3b 39d5 6ebc 18aa b23c
000000a0: 77b8 a3be 05fa 01bd e128 4e3c 5039 e2bc
000000b0: 1331 e73d 0d6a aa3c d6d9 6fbd 54d3 f83d
000000c0: cbb0 ca3d b451 77bd e07d 62be 77f4 30be
000000d0: 3425 c4be 375a 40be 2189 cfbd fffa 49bc
000000e0: 5307 9f3d 6280 a5bc 2456 203d c0fe 203e
000000f0: e7af 583d 7404 443a 7f00 8bbd 837b 073d
00000100: c119 9bbd 3c6f b63b 7d57 3dbe 2dac 94be
00000110: c301 31be 4711 2bbd 5aae a4bb 9f72 0ebe
00000120: 7dc2 79be a057 873d 8bab 8cbe e195 9ebe
00000130: 5c55 31be 500c 4e3d bf18 ab3d ed32 903c
00000140: 5cff 20be 3200 843b e4d1 fdbd 6df6 5abe
00000150: 093c e73c de38 3cbe 075a bbbd 4e98 a53d
00000160: 09de 993b 8b34 1a3c 76f6 8abe 057e d33d
00000170: 1c6b 23be b5f7 e1bd 9e9b 8abe 28d3 9abe
00000180: b8bd bfba 9cff edbd e7b3 72bd a350 23bb
00000190: dad3 393c 727e 2f3e 28ef 55be 3cb5 66be
000001a0: c152 4abe 08a7 293d 445e e33b 0a2f 6d3b
000001b0: bfb1 72be c066 0ebe f837 23bb 8e9f 143d
000001c0: 5670 5c3d 1392 91be 1b94 26be 7722 45bd
000001d0: a59c cb3d 09a4 933d e0cb fcbc 39c6 5cbd
000001e0: 6b82 0ebe 31db 6dbe aaae 7cbe 93c7 e9bc
000001f0: 8319 02be ca31 903d 1e84 dabd 4924 17be
00000200: b777 63bd cf1a 1abe 85de 21be bf76 0bbd
00000210: 60d9 633e 3d41 5ebd 1f0d 553e 4bf9 a83d
00000220: ca40 723d 8fdb 4c3d c480 113e 44da 89bb
00000230: 4074 2bbe 1950 58bd c6bc bb3d 5d9d 293e
00000240: eecf de3d fbae 643c 1f51 a23e e966 9239
00000250: 1d71 8f3d 8031 dcbe bc6d d03d cdc0 b93d
00000260: 1a87 f4bd e9d0 81bd b556 7f3d a902 b33d
00000270: de21 113e 642e eebd 36df b8bc 6868 cdba
00000280: 7510 063e 7504 33bc ff98 c63d 8385 d23d
00000290: 261b 75be 5037 a8bd 0ae3 bdbd 392d 85bc
000002a0: b87b 2f3e 7916 403d 8845 01bd 1f9d 74bc
000002b0: 34ad 603e ecb6 b63d 4239 f23d 1a10 d5bb
000002c0: b0eb 10bd d3e3 9c3d a563 f8bd 1438 51be
000002d0: a12b 87bd c0ea ec3c ee62 83bd c078 32bd
000002e0: 6eec 42be c074 2ebd f6f4 16be a5f0 86bd
000002f0: 83fa 4cbd d06d 3ebd 6f07 c8bd 4a47 1a3e
00000300: 0552 013e e250 c8bd 1c62 9bbe 387e a03d
00000310: 6697 3abe ed84 6b3d a59e 9dbc 3c70 5dbe
00000320: 141e c7bd d23e 46be 163a 59be fc84 7d3e
00000330: 6a5b b1bc a36e 953c af32 8d3e 1c67 2b3e
00000340: 9d90 e43d c4f5 53be d869 4e3e 0fdb 14bd
00000350: cdda e3bd 9dcd 00be 3bbb 2cbc 4e84 efbd
00000360: 08f4 e83d 2349 f93c a266 acbc 6fe9 87be
00000370: ad40 54be e23f 673d 7b7d f8bd 7b8a a83d
00000380: 4ed8 343e b982 193e f692 1e3c 750d 013e
00000390: c27a aa3c 755e 843e a52e eebd e574 c23d
000003a0: a420 bebd dc82 343d 92d2 cf3d 0855 133c
000003b0: 250c 713e 720e da3d cfe2 f5bd d6c8 ea3b
000003c0: 4e54 ffbd e803 7c3d 25d7 ab3d 9d96 b13d
000003d0: ce93 363e d051 11be fc5d 853d 7818 6dba
000003e0: 131c a5bd 4e4f 42be 645e 343c 79f8 5bbd
000003f0: 3e4a ebbc 6ab4 82bd 9b78 0cbe 41e6 3bbc

fc2.bias f4 [64]
-0.1065378 -0.11610844 -0.00534119 -0.039051473 0.011911306 -0.038741134 -0.059970424 -0.003666549
0.0011814212 0.07003041 0.04395201 0.07133574 0.07575688 0.08697538 0.016984899 0.15808359
0.061642587 0.04559071 0.05966054 0.103690386 0.0671411 0.12701766 0.014610695 0.26319042
0.21792985 -0.0062260698 0.09019474 -0.07625017 -0.19219086 -0.109973535 -0.05141357 -0.022165474
-7.015791e-05 0.019071495 -0.002442334 0.062855355 0.106037125 -0.030948456 0.01752859 -0.009042943
-0.11563726 -0.019187443 -0.08837307 0.022188328 0.07576074 0.050302688 0.016248921 -0.10405812
0.06700494 -0.02716173 0.03572219 -0.013523631 0.1673523 -0.030074393 -0.06746891 0.043813467
0.09281226 0.040912375 -0.056210585 0.21472807 0.055763863 -0.03062221 -0.015642634 0.02653981
00000000: 7d30 dabd 43ca edbd 2605 afbb 70f4 1fbd
00000010: a327 433c 06af 1ebd 8ca3 75bd 7c4a 70bb
00000020: ebd9 9a3a 1b6c 8f3d 0607 343d 7918 923d
00000030: 6c26 9b3d 2620 b23d ea23 8b3c aae0 213e
00000040: f07c 7c3d 53bd 3a3d 9c5e 743d a05b d43d
00000050: 4681 893d eb10 023e b261 6f3c e5c0 863e
00000060: 0129 5f3e 0f04 ccbb 05b8 b83d 0d29 9cbd
00000070: aecd 44be ce39 e1bd 0997 52bd 5e94 b5bc
00000080: be21 93b8 d33b 9c3c 910f 20bb 4fba 803d
00000090: fe29 d93d 9e87 fdbc 1e98 8f3c da28 14bc
000000a0: 3ad3 ecbd fc2e 9dbc f1fc b4bd 4cc4 b53c
000000b0: 7228 9b3d 310a 4e3d 751c 853c 6c1c d5bd
000000c0: e339 893d 4782 debc 6e51 123d 3892 5dbc
000000d0: 675e 2b3e 935e f6bc 242d 8abd c075 333d
000000e0: 5b14 be3d bc93 273d 123d 66bd ade1 5b3e
000000f0: a668 643d 6edb fabc fb24 80bc 046a d93c

fc3.weight f4 [32, 64]
0.31993017 -0.062616296 -0.29280582 -0.34239134 -0.3192803 -0.15368634 -0.26054224 -0.07269875
-0.23407796 0.038670175 -0.06858988 -0.1028502 0.054442517 -0.06815728 0.06808756 -0.15130498
-0.04460647 0.24801975 -0.12468036 -0.001575095 0.21554185 -0.11468397 -0.120507754 0.059326526
-0.18638296 -0.14974983 -0.07431542 0.2783149 0.0066244914 0.024174374 -0.025633223 -0.3691125
-0.1771554 -0.085393354 0.2448242 -0.4434543 0.015111615 -0.25020534 -0.33170328 -0.11528552
0.16855772 0.051802807 0.25369337 -0.024773622 0.21136464 0.13958341 0.032634076 -0.1024138
-0.2147581 0.17158139 -0.33329663 0.053881034 -0.092291795 -0.03267819 0.026316717 -0.12817936
0.28671288 0.28418756 -0.061184898 0.07624724 -0.16308643 0.0012927119 -0.115014985 -0.11479002
-0.012732119 -0.023079947 -0.04488318 0.30375445 0.2186127 -0.0349623 0.1017101 -0.09281732
0.059589867 0.09404372 -0.07970787 0.20829462 0.14764933 -0.055186886 -0.023315659 -0.010084309
0.0766577 -0.18844171 0.09816033 -0.042605706 -0.08948511 0.12260277 -0.059308182 0.088353865
-0.04403553 -0.10954772 -0.032880746 -0.057307106 -0.19667843 -0.43267003 0.30907416 0.11537269
0.09251708 -0.16085373 -0.2177368 -0.06857475 -0.042829156 0.24688652 0.08459588 0.12779596
-0.2793106 0.10737098 -0.16763431 0.100873426 -0.113496006 -0.029623482 0.31369528 0.080720775
-0.08591973 0.04520106 0.06036602 -0.000394598 0.0032520383 0.20426303 0.090393126 0.2444356
-0.23725127 0.022301631 0.18956709 0.14405441 0.045648288 0.31140807 0.09024844 0.08019263
0.10888021 -0.14077662 -0.011710254 0.056441534 0.20553955 -0.15221557 0.30980298 0.1593087
0.10823138 -0.07282767 0.025681522 0.1636388 -0.18382727 -0.163688 -0.044076916 0.00919868
0.14357242 0.20264694 0.08886496 0.0043025115 -0.0055720536 -0.23035482 -0.051791664 -0.064777635
-0.24930537 0.18636858 -0.09407447 0.0033531853 0.25190058 0.52476937 0.10618847 0.0969572
0.17650567 0.0603629 0.35913792 0.05433075 0.117175534 -0.04679312 0.28589788 -0.15004855
0.23129135 -0.08373427 0.14863549 0.053138047 -0.06353524 0.16323374 -0.014962221 -0.0894691
-0.3492468 0.055754036 -0.12409594 0.08654279 0.09013342 -0.08431575 0.114913374 -0.0008623471
0.37816066 -0.16585684 0.19086784 0.05547381 -0.1768758 -0.042481408 0.06337655 -0.05899768
-0.35836026 -0.14501588 0.021917565 0.2683882 0.08322959 0.21967913 0.14027686 0.14023076
0.15593274 -0.0074059097 -0.07138071 0.2852167 0.21862599 0.124493055 0.21420984 0.19417457
0.12261604 -0.104153395 0.1515999 -0.078794904 0.09880029 -0.030692516 0.10460276 0.19651054
-0.005566025 0.049256265 0.12335209 -0.5533753 -0.01452441 -0.38905302 0.14455847 0.08652141
0.14319889 -0.17604287 -0.37379152 0.078695 0.06350628 -0.34868053 0.18449247 0.3293228
-0.28178018 0.14334449 -0.27496424 -0.0017046555 -0.092659585 -0.09542393 -0.25408676 0.20620309
-0.014813331 0.10974277 0.053375553 -0.05445659 0.15998368 0.14431278 0.11209253 0.26294738
-0.05102266 -0.13945666 -0.014867129 0.091718204 0.17668061 0.27506638 0.1398967 0.12123412
00000000: e3cd a33e f93c 80bd a5ea 95be eb4d afbe
00000010: b578 a3be f45f 1dbe cb65 85be 15e3 94bd
00000020: 22b2 6fbe 9e64 1e3d da78 8cbd 20a3 d2bd
00000030: 1eff 5e3d 0b96 8bbd 7e71 8b3d b1ef 1abe
00000040: 46b5 36bd e4f8 7d3e 6b58 ffbd 6b73 ceba
00000050: 01b7 5c3e 6edf eabd c5cc f6bd 5f00 733d
00000060: 2ddb 3ebe 0558 19be af32 98bd 4a7f 8e3e
00000070: 4312 d93b 5609 c63c c4fc d1bc 50fc bcbe
00000080: 3a68 35be b6e2 aebd 32b3 7a3e 710c e3be
00000090: b596 773c ea1a 80be 03d5 a9be d11a ecbd
000000a0: 659a 2c3e 2e2f 543d 19e4 813e 0df2 cabc
000000b0: f96f 583e f4ee 0e3e 4fab 053d 54be d1bd
000000c0: 8ce9 5bbe 08b3 2f3e dba5 aabe 5cb2 5c3d
000000d0: 7b03 bdbd 91d9 05bd 2896 d73c 7341 03be
000000e0: 08cc 923e 0881 913e 049d 7abd 8327 9c3d
000000f0: 2100 27be 3770 a93a fa8c ebbd 0817 ebbd
00000100: 619a 50bc 2812 bdbc 6dd7 37bd b485 9b3e
00000110: 02dc 5f3e a134 0fbd 634d d03d 0217 bebd
00000120: 8114 743d fe99 c03d e13d a3bd 2f4b 553e
00000130: 6331 173e a50b 62bd 7b00 bfbc a838 25bc
00000140: b6fe 9c3d ddf6 40be 4808 c93d 5283 2ebd
00000150: f843 b7bd 2917 fb3d 23ed 72bd dff2 b43d
00000160: 9a5e 34bd 8e5a e0bd f6ad 06bd dbba 6abd
00000170: 1266 49be ed86 ddbe f83e 9e3e 8448 ec3d
00000180: 9879 bd3d d7b6 24be 65f6 5ebe eb70 8cbd
00000190: a06d 2fbd d2cf 7c3e 9b40 ad3d f2dc 023e
000001a0: cd01 8fbe 51e5 db3d 54a8 2bbe ba96 ce3d
000001b0: 9870 e8bd f2ac f2bc ab9c a03e ef50 a53d
000001c0: aff6 afbd bf24 393d 5c42 773d 0ce2 ceb9
000001d0: 2620 553b 542a 513e 0820 b93d 534d 7a3e
000001e0: fff1 72be e9b1 b63c e01d 423e 0083 133e
000001f0: b3f9 3a3d e170 9f3e 2dd4 b83d 093c a43d
00000200: 96fc de3d bf27 10be 5ddc 3fbc 3d2f 673d
00000210: f678 523e 66de 1bbe 7f9e 9e3e d221 233e
00000220: 6aa8 dd3d ac26 95bd 0e62 d23c ee90 273e
00000230: 373d 3cbe d49d 27be ff89 34bd 0fb6 163c
00000240: a604 133e ae82 4f3e d5fe b53d 15fc 8c3b
00000250: c695 b6bb 22e2 6bbe 7f23 54bd 23aa 84bd
00000260: e849 7fbe 68d7 3e3e 1eaa c0bd 1dc1 5b3b
00000270: 1df9 803e 4957 063f 5779 d93d 7f91 c63d
00000280: e7bd 343e 173f 773d ede0 b73e ec89 5e3d
00000290: baf9 ef3d 25aa 3fbd 3561 923e 54a6 19be
000002a0: a4d7 6c3e df7c abbd e733 183e 48a7 593d
000002b0: c41e 82bd bf26 273e 1a24 75bc 933b b7bd
000002c0: 7ad0 b2be 585e 643d 0326 febd 593d b13d
000002d0: df97 b83d bcad acbd b457 eb3d 220f 62ba
000002e0: 469e c13e 60d6 29be dc72 433e 8138 633d
000002f0: ee1e 35be fc00 2ebd 91cb 813d 8da7 71bd
00000300: ff7a b7be 0b7f 14be 778c b33c 2e6a 893e
00000310: 4674 aa3d 91f3 603e bda4 0f3e a798 0f3e
00000320: d5ac 1f3e 46ad f2bb 0d30 92bd ec07 923e
00000330: 7edf 5f3e 37f6 fe3d d359 5b3e b3d5 463e
00000340: 1e1e fb3d 604e d5bd 013d 1b3e 395f a1bd
00000350: ce57 ca3d df6e fbbc f939 d63d 0f3a 493e
00000360: 3463 b6bb f0c0 493d 05a0 fc3d 01aa 0dbf
00000370: caf7 6dbc f531 c7be 2307 143e 2332 b13d
00000380: bba2 123e 9544 34be 9a61 bfbe d82a a13d
00000390: 950f 823d 4186 b2be 98eb 3c3e ff9c a83e
000003a0: 7e45 90be e6c8 123e 1dc8 8cbe bf6e dfba
000003b0: 4fc4 bdbd 9f6d c3bd a917 82be e726 533e
000003c0: 9db3 72bc d1c0 e03d 53a0 5a3d e00d 5fbd
000003d0: c3d2 233e bbc6 133e c590 e53d 0aa1 863e
000003e0: 23fd 50bd bacd 0ebe 4295 73bc c1d6 bb3d
000003f0: c3eb 343e 80d5 8c3e 1541 0f3e 9849 f83d

fc3.bias f4 [32]
0.12406874 0.40007973 -0.09164063 0.39205283 0.039641835 0.1621097 -0.12479271 -0.13205904
-0.039580755 -0.025839224 0.20107748 -0.101847164 0.1346379 0.103659675 0.30741072 0.31977725
0.07231577 -0.088285 -0.13092099 0.3057999 0.4018526 0.058233015 0.3511628 0.17810115
0.34634438 0.029612655 -0.0812814 -0.033079553 -0.14300789 0.002958333 0.09293935 0.35121074
00000000: c017 fe3d 40d7 cc3e 15ae bbbd 26bb c83e
00000010: 7a5f 223d 1600 263e 5293 ffbd 7c3a 07be
00000020: 6e1f 22bd c8ac d3bc 41e7 4d3e 3f95 d0bd
00000030: 85de 093e 864b d43d f064 9d3e d8b9 a33e
00000040: 4a1a 943d c4ce b4bd 2710 06be ce91 9c3e
00000050: a0bf cd3e be85 6e3d 9ccb b33e 2660 363e
00000060: 0d54 b13e 3d96 f23c dd76 a6bd 6d7e 07bd
00000070: a970 12be 97e0 413b fc56 be3d e5d1 b33e

fc4.weight f4 [4, 32]
0.3140242 0.1456405 -0.059510402 0.10141623 0.3325003 -0.2732966 -0.15120196 -0.1625611
-0.29033726 0.40398952 0.2262658 -0.0056721233 0.0034423165 -0.01085202 0.23797674 0.2112462
0.12410947 -0.27627534 -0.14424524 0.07189035 0.21753734 0.027971573 0.2105664 0.2972616
0.26924187 -0.20931818 -0.16515756 0.13026378 -0.10610989 -0.24819648 -0.4052461 0.2537931
0.24223736 0.076779 0.19920793 0.3092983 0.32315987 -0.19331563 -0.11668483 0.017536659
0.13761218 0.25882435 0.34679902 -0.35381317 0.17822438 0.13522682 0.22180276 -0.020755922
-0.09735253 -0.11589147 -0.18151173 0.095249526 -0.055264875 0.13517012 0.1376014 0.18431313
0.2809472 -0.26068386 0.12914748 0.5208263 0.084759906 -0.087289035 0.32088634 0.079368286
-0.34648106 0.20163132 -0.3689011 0.28215566 0.47966254 -0.07839575 0.118578345 0.15046178
0.097914465 0.09642164 0.33028498 -0.30040824 -0.12551221 0.32137698 -0.018733285 0.18720491
0.2387749 -0.056149103 -0.047053274 0.24385442 0.22322509 0.1953311 0.270792 -0.06247389
0.08658323 -0.20260274 0.062065717 -0.03903172 0.009239304 0.32679063 -0.22549745 0.18828025
-0.23271285 0.15411615 -0.1828633 0.27660346 0.08597613 -0.36005592 0.0064631966 -0.030873107
-0.18853979 0.3707528 0.05543955 -0.01822967 0.21251124 -0.09089475 0.2713181 0.0888141
0.215332 0.0029053579 -0.439772 0.17707519 0.2407607 0.16670617 0.05600952 0.122151315
0.17145969 -0.025562067 0.340649 -0.008389781 0.026416348 -0.2511591 0.2656606 0.17646624
00000000: c8c7 a03e c922 153e 2ec1 73bd 50b3 cf3d
00000010: 7b3d aa3e 88ed 8bbe b0d4 1abe 6b76 26be
00000020: 16a7 94be b7d7 ce3e 39b2 673e 38dd b9bb
00000030: 7d98 613b accc 31bc 2db0 733e ed50 583e
00000040: 1b2d fe3d f673 8dbe 06b5 13be 3f3b 933d
00000050: 1cc2 5e3e a424 e53c b89e 573e ac32 983e
00000060: 12da 893e 8157 56be 101f 29be de63 053e
00000070: 2450 d9bd 3827 7ebe 6b7c cfbe 2bf1 813e
00000080: 120d 783e 4f3e 9d3d 2afd 4b3e 595c 9e3e
00000090: 3675 a53e 88f4 45be 75f8 eebd 0aa9 8f3c
000000a0: 35ea 0c3e a084 843e a48f b13e 0027 b5be
000000b0: 7480 363e e678 0a3e 4320 633e 5308 aabc
000000c0: c360 c7bd 8258 edbd 36de 39be 2f12 c33d
000000d0: 6c5d 62bd 096a 0a3e 62e7 0c3e 95bc 3c3e
000000e0: 50d8 8f3e 5b78 85be 3d3f 043e df54 053f
000000f0: 9a96 ad3d 98c4 b2bd 374b a43e d78b a23d
00000100: f765 b1be 7178 4e3e 9be0 bcbe b576 903e
00000110: 5496 f53e f38d a0bd 34d9 f23d a712 1a3e
00000120: 6187 c83d b578 c53d 1d1b a93e 1ccf 99be
00000130: 4686 00be 868b a43e 8c76 99bc a5b2 3f3e
00000140: 6881 743e 9afc 65bd efba 40bd f9b4 793e
00000150: 1e95 643e e004 483e 40a5 8a3e 9fe4 7fbd
00000160: 8c52 b13d 1877 4fbe 9f38 7e3d badf 1fbd
00000170: 7360 173c 1a51 a73e cee8 66be 8acc 403e
00000180: 474c 6ebe a0d0 1d3e 8440 3bbe f89e 8d3e
00000190: 4114 b03d 4059 b8be 39c9 d33b 99e9 fcbc
000001a0: 9310 41be 50d3 bd3e 9514 633d 6456 95bc
000001b0: 8c9c 593e 0727 babd 35ea 8a3e 2be4 b53d
000001c0: fe7f 5c3e d167 3e3b cc29 e1be 3353 353e
000001d0: f989 763e 06b5 2a3e 3d6a 653d 782a fa3d
000001e0: 2193 2f3e 8a67 d1bc 8c69 ae3e 4b75 09bc
000001f0: 1967 d83c ed97 80be ab04 883e 91b3 343e

fc4.bias f4 [4]
0.062000252 0.24853832 0.084936 0.033941474
00000000: faf3 7d3d d480 7e3e edf2 ad3d 3706 0b3d
